handwriting/model/model.tflite (tflite, 248976 bytes, 10 tensors)

conv2d_1/Conv2D_bias f4 [30]
00000000: 6604 95be 7685 05bb 0a69 c1bc a0b9 c8ba
00000010: 350f 60be 3be7 36be 9b5c 5bbd 30d1 3c37
00000020: b208 7abe 324e 50be b4c9 50bc 74ab 213d
00000030: 56f1 acbd 6bdc 2fbe 78a1 5f3c 25ff 21bc
00000040: 9827 62be 5e11 69be 710d 69bc 3388 76be
00000050: 1ea2 05be ea78 10bd 576c d2bd f82c 8abe
00000060: 0e25 a4bd cb6f 50bd f92d 5bbe 3975 5fbe
00000070: d361 97be b8ba 43be
-0.29104918 -0.0020373738 -0.023609657 -0.001531411 -0.21880801 -0.17861645 -0.053555112 1.12543785e-05
-0.2441738 -0.20342329 -0.012743402 0.03947015 -0.08444469 -0.17173927 0.013649337 -0.009887491
-0.22085416 -0.22760531 -0.014224396 -0.24075393 -0.13050124 -0.035271563 -0.102745704 -0.26987433
-0.0801488 -0.050887864 -0.21404256 -0.2182206 -0.2956682 -0.19114196

conv2d_1/kernel f4 [1, 5, 5, 30]
00000000: 278a 413e 23a3 363d 29b8 4cbe 05cc e7bc
00000010: 9eb2 a33b f36b a53d b732 00bf 595f 3ebd
00000020: 9c9b 1c3e d974 9ebe 7bf4 443c 7ad7 b1be
00000030: c7f7 143e cc14 1e3e f705 3fbe d624 503e
00000040: 3e95 ec3d 2ced ebbb 9be7 ac3d db54 223e
00000050: c171 053e c8c2 8bbb bddf cc3d ba6e d4bb
00000060: aeda ae3c f4e3 95bd d639 2f3e ec10 14bc
00000070: d095 113e 7849 17be e430 423e 29d5 283e
00000080: 7e39 44be f7d0 393e 63b8 93be 0971 09bc
00000090: 77a8 81be 38bd 463e d95d c23d 8af4 a6be
000000a0: becb 78be dd24 e6be d415 a7bd ebb3 1f3d
000000b0: 7125 03bf 1623 95bb d7b9 bebd 5d4c b1bd
000000c0: f559 603e cdd3 dfbd 2440 28be 3ce8 ed3d
000000d0: cb03 703e becf 2dbc eb18 02be 6abb b0be
000000e0: ceb5 153e 5a98 32bd 4887 0dbd d228 83be
000000f0: 4d3c 553e 7084 c13d c047 853c 4703 c43d
00000100: 2873 9fbd f9c0 e8bc ec13 22be a524 e33d
00000110: 6cee 8338 a9b5 f3bd 18f4 8bbe 5cfb 13bf
00000120: 8ac3 83be 04f3 853d f61d 31bf 3e8f 0abf
00000130: 91e1 863d f7c4 e33d 60a0 9d3d 3ba8 9fbd
00000140: c2a0 e53d 98e8 6c3e 065f 753e beb5 913d
00000150: 5ddb 2abe 7523 5cbd c274 233e 72fc a23d
00000160: c9eb 8dbd 5772 abbe a37b f73d 1674 263e
00000170: e614 cd3c 5ef4 633d f69a 94bc 4207 8cbd
00000180: fe0f 253e deff 7f3e efcc 4bbe a5a4 bcbc
00000190: 80a6 5abe 1223 36bf 5788 77bd ad0e 0cbd
000001a0: a31b 26bf 28b6 8dbd d985 5ebd f3dd a33b
000001b0: e583 05be 9ffb debd 6fca 55be be50 5b3e
000001c0: e880 023e 0edb 423e 6549 283e 1a38 12be
000001d0: d61c 653e 9012 18bd 483b 1ebd 20d6 243d
000001e0: c305 343e 9a92 263e e098 48bd af74 c6bd
000001f0: bc49 9a3c 0275 d13d 09b4 573e 063f 313e
00000200: d62b 3dbe 8c68 0c3e e8d0 c2bc 5b19 debe
00000210: 557a 6f3d 6c48 a23c 051c dabe 0699 9e3e
00000220: a240 f3bc c9fe be3d 6385 c9be e56a 5a3d
00000230: d3e2 c03d 328f 053e 74b3 593e 9158 303c
00000240: 9673 a33c a952 6e3d af3f a63d 740f b83e
00000250: d8c1 06be c9b7 c73d 9f09 07be 7b72 e4bc
00000260: 0331 5ebe a431 5abd cc92 babe 8408 10bd
00000270: d590 e6bd 2a3d 58be 2f7c cabd ddb7 b6be
00000280: 8143 e7bd 305c cabe fd34 483e f2bf 043e
00000290: bf78 9abe 1915 133e fdd4 c43d 6b37 cb3d
000002a0: 418b 243e ab53 adbe 32f7 81be 20a1 bcbd
000002b0: 3df4 d6bd 26d8 3a3e a217 3b3b f414 353d
000002c0: 737c 2dbe 7977 63bd 034f c23d 6b5e f6bc
000002d0: 5cc0 30be b5ea 1f3e 702c bebe 67fc 6ebc
000002e0: a7d2 933d 0f6d 753d b88d 18bd f431 7cbe
000002f0: 3d65 463e 90cc 35be 2f5e f0be 397c cbbe
00000300: 7fe3 a6be 57b0 a63d 407f bbbe e6db e9bd
00000310: d8ef 03be 5bbe 44be 8224 7b3d 25aa 1bbe
00000320: 4c2b 8f3d 5dbd 1abe 22ba a03c 3109 143e
00000330: 97e6 9ebd 131a 98be e31a c5be 6856 d83c
00000340: 341f 373d 939e 89bd 43f0 b3bd a195 bd3d
00000350: f34f 0e3c f97b bf3d 9734 6abd 59bd b7bb
00000360: ea4b a4bd 658d 85be 7184 313e 690d b6bd
00000370: a18a bdbd eb76 90be c281 fabd 17bc d6bc
00000380: 0534 97be 6897 c6be 4ad6 d23d b0f0 db3d
00000390: 9567 123d 53cb 25bb 1bc1 3fbd 6e1e 913b
000003a0: e38c 423d ea97 f13b 3f9c 9cbe 54a0 07bd
000003b0: dfa5 56be 915e 1a3d c0f3 ea3d 9427 60be
000003c0: 7ec9 943a 7231 da3d d164 2b3c 765d 5d3e
000003d0: e64c af3c 53f3 12be 3245 aebb 2cd4 84be
000003e0: d0b6 153d 9df8 073d 1186 29bc 719e 44be
000003f0: 0574 c43d c0be c2bd 948b c1be 1067 743d
0.18900357 0.044589173 -0.19992127 -0.028295526 0.004995658 0.0807723 -0.50077385 -0.04647765
0.15293735 -0.30948523 0.012021179 -0.34734708 0.14547645 0.15437621 -0.18654619 0.20326552
0.11551903 -0.007199904 0.08442613 0.15852682 0.13031675 -0.004265163 0.10003612 -0.006482926
0.021344509 -0.07318869 0.17111906 -0.009037238 0.14217305 -0.1477412 0.18963963 0.16487564
-0.19162557 0.1814612 -0.28851613 -0.008388766 -0.2532384 0.19408119 0.09490556 -0.32608443
-0.24296471 -0.4495 -0.0815846 0.038989943 -0.51229006 -0.0045513017 -0.0931279 -0.08657143
0.21909316 -0.1092907 -0.16430718 0.11616561 0.23438947 -0.010608612 -0.12704818 -0.34517986
0.14620134 -0.043602325 -0.034552842 -0.2561708 0.20823784 0.094490886 0.016269565 0.095709376
-0.07785636 -0.028412329 -0.15827912 0.11090974 6.290976e-05 -0.11899883 -0.27334666 -0.5780542
-0.25735122 0.06540492 -0.6918634 -0.5412482 0.06585992 0.111215524 0.07696605 -0.07795759
0.11212303 0.23135602 0.2396203 0.07114743 -0.16685243 -0.053744752 0.15962508 0.07958306
-0.06929738 -0.33485672 0.12084129 0.16255221 0.02503438 0.05565297 -0.018140297 -0.06837322
0.16119382 0.2499995 -0.19902395 -0.023027727 -0.21352577 -0.71147263 -0.06043276 -0.034193683
-0.6488592 -0.06919509 -0.054326866 0.0050008236 -0.13038595 -0.10887837 -0.20878004 0.2141752
0.12744486 0.19028875 0.16434248 -0.14279214 0.22374281 -0.037127078 -0.038630754 0.040243268
0.17580323 0.16266862 -0.048973918 -0.096902244 0.018833987 0.102273956 0.21064772 0.17309198
-0.18473753 0.13711756 -0.023781255 -0.4337872 0.058466274 0.019809924 -0.42599502 0.30976123
-0.029693905 0.0932594 -0.39359578 0.0533246 0.09418263 0.13042906 0.21259862 0.010763303
0.019952577 0.0581843 0.081176154 0.3594929 -0.13159883 0.09751851 -0.13187264 -0.02788662
-0.21698384 -0.053269997 -0.36440122 -0.03516437 -0.11258093 -0.21117082 -0.098869674 -0.35687152
-0.11292172 -0.39523458 0.19551463 0.12963846 -0.30170247 0.14363517 0.09610937 0.099226795
0.16068746 -0.33852896 -0.25383908 -0.0921042 -0.104958035 0.18246517 0.0028548022 0.044209436
-0.16942005 -0.05553386 0.094877265 -0.030074319 -0.1726088 0.15616877 -0.37143278 -0.014586545
0.07217913 0.05991846 -0.03724453 -0.2462843 0.19374557 -0.17753816 -0.46946856 -0.39743212
-0.3259544 0.08139103 -0.36620522 -0.114188954 -0.12884462 -0.1921324 0.061314113 -0.15201624
0.0699068 -0.15111299 0.019620005 0.14456631 -0.07758825 -0.29707393 -0.38497075 0.02640839
0.044707492 -0.06719699 -0.08786061 0.09257055 0.008686054 0.09349818 -0.05717906 -0.005607289
-0.08022292 -0.26084438 0.17335679 -0.088892765 -0.09254957 -0.28215727 -0.122317806 -0.026212735
-0.29531875 -0.3878739 0.10294779 0.10739267 0.035743315 -0.0025298193 -0.04681502 0.0044286763
0.04749764 0.007372846 -0.30587956 -0.033111885 -0.20961712 0.03768784 0.11472273 -0.21890098
0.0011351553 0.10653962 0.010461048 0.21617684 0.021398973 -0.14350633 -0.0053183073 -0.25943124
0.036551297 0.03319608 -0.010346905 -0.19201066 0.095924415 -0.09509039 -0.37801802 0.0596686

conv2d_2/Conv2D_bias f4 [15]
00000000: 39a4 033c 414f b0be 721f 30be d523 c03c
00000010: 68aa 46be a277 01be 4ca7 033e fd26 313e
00000020: b163 9fbd f5b7 dbbd f281 d3be 1c8d 553d
00000030: 5bfa a5bd 7bb7 04be c785 6dbd
0.008034759 -0.34435466 -0.17199495 0.023454586 -0.19400942 -0.12643293 0.12856787 0.17300029
-0.077826865 -0.107284464 -0.41310078 0.052136526 -0.08104392 -0.12960617 -0.05798891

conv2d_2/kernel f4 [15, 3, 3, 30]
00000000: 68c4 8539 9db3 343e d74b 863e 20ea f73a
00000010: 8013 743d 7582 863c d20b a33e 96e4 a43c
00000020: c8d5 6ebd fead 143e 395d 6a3e 664b 203d
00000030: eab8 983e bbaa 693e aa86 ed3b 6e61 fa3e
00000040: 8c49 47be c668 eabb f16a 4a3e 8dbe 8f3d
00000050: 0233 813c 91d9 283e fca5 9a3c 6587 063e
00000060: 1450 e93d 1d41 743e 21f2 343d 9c70 033e
00000070: ae47 c7bc 1d8d c53d 57a3 23bc dbc6 ac3d
00000080: 65d6 c53d f09c 0bbd 7e91 603d c380 123e
00000090: dcdc b33d c15e 0bbe cbb3 133e e1c0 833e
000000a0: f680 703d 2d9e 07be cde9 883e 25c1 973c
000000b0: 1343 f8bd e628 c63e 2283 4ebd 318d cdbd
000000c0: 855f b13e e3fd 723c 1d67 083e 178c bfbd
000000d0: 6269 5bbd 805c 2f3d b76b c8bc 231a 193d
000000e0: 3e68 463e 6c03 0f3c c29a 90bd 1d7c 9abe
000000f0: eb99 5ebe 59bd 6fbd 42e9 90bd 339b 55bd
00000100: 4d4a 35be 97af 5b3c 1807 e0bd 0bdc 83be
00000110: 2aa5 26be 2a1b c73d e42d fc3d 31a4 653c
00000120: 6294 7e3e 793b 4b3d 062c 3dbe 3080 873e
00000130: a059 18be c91a ebbc da39 ae3e f1b2 49be
00000140: 7ac4 e2bd b480 89be fe48 04be 363d c0be
00000150: 196a 04be ab97 103d e232 95be b117 13be
00000160: e649 d6bd 85a1 2cbc 154a 513d 3f85 e53d
00000170: a1db a3bc f61d 503e ace6 a63d fc04 11bd
00000180: 7a9a 573d 7f6c ef3d 7041 f83d 1316 1a3d
00000190: b2ff b93c d581 d9bc 707a cb3d 826d 45bd
000001a0: d7ce 5ebe cf07 873e 4375 6abe 001d 58be
000001b0: 0a40 5e3e 310d 233b 234c e03d 41d1 283e
000001c0: eef2 8f3d 3da1 8b3d 0174 80bb efd7 7c3d
000001d0: 1b77 673e 3410 543d 8db5 1dbe 9051 3fbe
000001e0: 52c8 b83c d2c9 a03d 5bf0 aebe 42bc 1b3d
000001f0: 3809 0cba b0bc d6bd 0250 04be 9cf1 30be
00000200: ac1c 4f3d 90f7 aebd e095 14be b435 473b
00000210: d06b da3d 189c 913c 0c11 89be 856a 943e
00000220: 2e43 bebd 96b1 14be 42b4 3c3d ed0f 4fbe
00000230: f2f7 793d da51 6bbe 5ef5 c6bc 6cac 82be
00000240: 374e eebe f79f cebe fb92 453d eeca afbd
00000250: 01f1 b2bd e352 45bd f320 b6be b356 e6bd
00000260: bcec cdbd 6112 55be b2df 22be 21b2 b8bd
00000270: 5f3d 29be 6a73 8bbe e2ab fabd ed29 c03d
00000280: 3c0b 2a3e f571 3d3e cc44 0dbd 543b 15be
00000290: 17d5 94bd 7ce2 0d3e 729f 8ebe ace3 a0be
000002a0: 35bd 04bc 94da 7ebe efee 12be 0a22 80be
000002b0: 99a6 a1be 2f12 d5be 118e 4bbe eaf9 be3c
000002c0: f2b0 adbe 5aaf c8be d6cc 97be 708e 2a3d
000002d0: 3856 b5bd c2ac 9d3e 8a40 42be 2a5e a73e
000002e0: c890 e9bd eaa8 3dbe ffaf 03be 94f1 48bc
000002f0: 56b0 d4bc e1e4 ddbc 826c ea3b b135 093d
00000300: 2a56 a2bc 7a23 39bd 66bf 99be d936 8d3e
00000310: 3947 a0be b0ad a0be f0f4 d83d bb40 583c
00000320: 35d1 edbb b4bc d63d 016c 173c d608 ddbd
00000330: 1c9f 16be a5fd 05be 86b3 1e3e a70a 68bd
00000340: d09a 6ebe 5c34 1bbd 9783 66be 590f 48bc
00000350: bf02 a8be 0dcd b03c e1ee dcbe c03f 5fbe
00000360: 6724 87be a22d 8fbe 06e9 16be c74c 44be
00000370: 70a7 39be af8e 173d 9acd 77bd ff1c 0dbe
00000380: a9c6 a3be d69d 2c3e d1ec 6fbe d1d3 11be
00000390: e5a2 03bd 2f76 d1be 23f8 6bbe 0e36 85be
000003a0: fc09 5ebe 1081 d9be 21d4 95be 56f6 b5bd
000003b0: 928d dfbe 53a2 76be a73c 32be 56a2 3f3d
000003c0: 3108 85be 2cf5 82be 9336 73bc 358c a5bd
000003d0: fcb5 57be ce19 1cbe 2c18 89be 5118 5dbe
000003e0: 6396 3ebe af43 c5bd d199 8f3d 9ab7 e7bd
000003f0: cead cebd 9928 5abe 1215 87be 1780 b73d
0.0002551407 0.17646642 0.26229736 0.0018914379 0.05958891 0.016419629 0.31844956 0.02012853
-0.058309346 0.14519498 0.22887124 0.039134406 0.29828578 0.22819035 0.007248719 0.48902458
-0.1946165 -0.0071536032 0.19767357 0.070187666 0.015771393 0.16489245 0.018877976 0.13137586
0.11392227 0.23852964 0.044176225 0.12835926 -0.024326172 0.09646056 -0.009987674 0.08436366
0.09660033 -0.034085214 0.054826252 0.14306931 0.0878236 -0.13610364 0.14424054 0.25733092
0.058716737 -0.13243933 0.26740876 0.018524716 -0.121221684 0.38703078 -0.050418027 -0.10036696
0.34643188 0.014831039 0.13320585 -0.09352892 -0.053567298 0.042812824 -0.024465425 0.03737844
0.19375703 0.008728843 -0.07060768 -0.30172816 -0.21738403 -0.058530185 -0.070757404 -0.052149963
-0.17704125 0.013408563 -0.10938853 -0.25753817 -0.16273943 0.09721978 0.123134404 0.014016197
0.24861291 0.049617264 -0.18473825 0.26464987 -0.14877939 -0.028699296 0.34028512 -0.19697167
-0.11072631 -0.26856005 -0.1291847 -0.375467 -0.12931098 0.03530089 -0.29140383 -0.14364506
-0.10463314 -0.010536556 0.05109604 0.11207055 -0.020002188 0.20323929 0.08149466 -0.035405144
0.052637555 0.11690616 0.12121856 0.037618708 0.022704933 -0.026551167 0.099354625 -0.048200138
-0.2175859 0.26373145 -0.22896294 -0.21104813 0.21704116 0.002487969 0.10952022 0.16486074
0.07028757 0.06817863 -0.0039200787 0.061729368 0.22604029 0.051773265 -0.15401287 -0.18683457
0.022556458 0.07850994 -0.34167752 0.038021334 -0.000534195 -0.10485208 -0.12921146 -0.17279667
0.050564453 -0.085433125 -0.14510298 0.0030397 0.10665095 0.017774627 -0.26770818 0.28987518
-0.09290157 -0.14520869 0.046070345 -0.20220919 0.061027475 -0.22980443 -0.024286922 -0.25522172
-0.46544048 -0.40356418 0.048235875 -0.08583628 -0.08737374 -0.04817475 -0.35572013 -0.11247005
-0.10054919 -0.20807792 -0.15905645 -0.090183504 -0.16527317 -0.2723649 -0.12239815 0.09382997
0.16605848 0.18500502 -0.034489438 -0.14573413 -0.07267206 0.13855928 -0.27856022 -0.314237
-0.008101751 -0.24888068 -0.14348958 -0.2502597 -0.31572416 -0.41615435 -0.19878413 0.023312528
-0.3392406 -0.39196283 -0.29648465 0.041639745 -0.088543355 0.30795866 -0.18969932 0.3268903
-0.11404568 -0.18521467 -0.12860106 -0.012264628 -0.02596299 -0.027086677 0.0071540484 0.03349847
-0.019816477 -0.04519985 -0.30028838 0.27580908 -0.3130434 -0.31382513 0.10593593 0.013199027
-0.0072576054 0.10485211 0.009242059 -0.10792701 -0.14709133 -0.13085039 0.1549817 -0.056650784
-0.23301244 -0.03789173 -0.22511135 -0.01221069 -0.32814595 0.02158215 -0.43151 -0.21801662
-0.2639496 -0.27964503 -0.14737329 -0.19169913 -0.18130279 0.037001308 -0.06049881 -0.13780592
-0.31987503 0.16857085 -0.23430182 -0.14240958 -0.03213777 -0.4091048 -0.23043875 -0.26017803
-0.21683496 -0.4248128 -0.29263404 -0.088848755 -0.43662697 -0.2408536 -0.1740595 0.046785675
-0.25982812 -0.25577676 -0.0148445545 -0.08083383 -0.21065515 -0.15244219 -0.26776254 -0.21591307
-0.18612055 -0.0963205 0.0701176 -0.11314316 -0.10091744 -0.2130455 -0.26383263 0.08959978

dense_1/MatMul_bias f4 [128]
00000000: 2eff e23d 05b4 2d3d 9ec5 553d bc10 823d
00000010: 99f0 ddbd 0332 433e 4a93 5fbe 15cc a73d
00000020: ab9c ccbd bd94 09be ae85 033e adfb b13d
00000030: fc91 b5be 3e1c 043e 9aae 0dbe 5a94 9cbd
00000040: 084a 39bd de9b bb3d 2746 08bc 093a b5bd
00000050: 9e31 883c 5b2a 903d f909 033d da41 e5bd
00000060: e856 373e e1ba 94bc 2920 59bd 48e8 c33c
00000070: d3d3 1fbe db08 1abd ad86 df3d 30e4 21be
00000080: c26d 933d bd1e c2bd c092 cd3a cbb5 233e
00000090: a7ab 1b3e 43ed 67bd 2571 abbd f395 733d
000000a0: 395b 0fbd 8c00 983e 34f8 85bd b719 d73c
000000b0: d123 17be 86ab aebc 6826 463d 47a6 4bbe
000000c0: beb5 ae3d aaf2 17be 8838 f63c 8fea 303e
000000d0: 167f ad3c e67e 08be d353 45be 2cc5 41be
000000e0: 4606 06be ebc9 68be 4924 0b3e 67c7 d23b
000000f0: eb73 bc3c 6caa f3bd 6c95 a43d 28ac cd3d
00000100: e656 74bd dac8 de3c b20a 42be 7aeb a6bd
00000110: 9aa4 1e3e 696c 26bd 8c31 02be 5078 b2bd
00000120: aea9 7dbd 6b98 b63d 740f bcbd a5c7 f8bd
00000130: ab79 e6bd 88a1 163e ccd1 95be cc45 35be
00000140: 4ab2 bdbd 9757 03be fe28 91be 4c40 7e3e
00000150: 13ea 8ebe eeef 64bd 8cb4 99bd 7eef 25bc
00000160: 16db 87be 56d3 b2bd 3009 653e 7a9a c3bd
00000170: fda6 fc3d 8064 c93d 8ccb 9ebd 8761 1f3c
00000180: b321 eabd b0eb 1bbd 7234 1ebe 0327 4a3e
00000190: 4e17 643d 4360 a5bc c88e ff3d e9ab 2c3e
000001a0: 146f c3bd ea0f e3bd 1918 f43c 9e58 9abc
000001b0: ac08 8dbd d896 eebd 83c9 1d3c d1fb 8b3d
000001c0: 29c8 23be d337 223e e62e fdbd 0e22 4e3e
000001d0: 5f71 52bd 9a51 af3d fb15 aebc ec1b 4cbd
000001e0: 00cc 36bc adaa 15bd 7e24 bd3d 0886 71be
000001f0: 638f b1bd 259f 0d3d 4d32 28be 8945 eabd
0.11083828 0.042408008 0.052190416 0.06350848 -0.10836906 0.19062047 -0.2183353 0.081932224
-0.099908195 -0.13435645 0.12843964 0.086905815 -0.3546294 0.12901399 -0.13836136 -0.07645483
-0.045236617 0.09160589 -0.008317507 -0.0884896 0.016625222 0.07039329 0.031991933 -0.11194201
0.17904246 -0.018155517 -0.053009186 0.023914471 -0.15608148 -0.0376061 0.10914359 -0.15809703
0.07198669 -0.09478519 0.0015683994 0.15987317 0.15202199 -0.056622755 -0.0837119 0.059469175
-0.034999106 0.29687917 -0.065414816 0.026257379 -0.14759757 -0.021322023 0.04837647 -0.19887649
0.08530758 -0.14838663 0.030056253 0.17276977 0.021178763 -0.13329658 -0.19270258 -0.18922871
-0.1308833 -0.22733276 0.1358806 0.006432462 0.023004493 -0.1189774 0.080363125 0.10042602
-0.059653185 0.027195383 -0.18949392 -0.08150382 0.15492478 -0.04063073 -0.12714213 -0.08714354
-0.061929397 0.0891579 -0.09182635 -0.12147454 -0.11253675 0.14710057 -0.29261625 -0.17702407
-0.092625216 -0.12826382 -0.28351587 0.24829215 -0.2791296 -0.055892877 -0.0750514 -0.0101279
-0.26534337 -0.087317154 0.22366786 -0.095509484 0.12336538 0.09833622 -0.07753667 0.009727842
-0.11432209 -0.038066566 -0.15449694 0.19741444 0.055686288 -0.020187503 0.12478405 0.16862454
-0.09542671 -0.1108702 0.029796647 -0.018841084 -0.0688642 -0.11649865 0.009630564 0.068351395
-0.15994324 0.15841608 -0.12362461 0.20130178 -0.05137765 0.08560486 -0.021250715 -0.049831316
-0.011157036 -0.036539722 0.09235476 -0.23586285 -0.08669927 0.0345756 -0.16425438 -0.11439044

dense_1/kernel/transpose f4 [128, 375]
00000000: 10a4 11be 892a fe3d 7107 1d3e 96e6 3d3e
00000010: 652b 08be 86b0 953e c83e 66be af4b ce3d
00000020: a7d6 773d 7533 28bd ba50 9dbd abbf 6d3e
00000030: b092 1fbd 201c bfbd 5499 9d3e e859 043e
00000040: d59f 133e 4af9 38bc 08a8 233e 29ea 1a3c
00000050: f7b9 803e 1eb2 83bc d635 d03d 69f3 b0bd
00000060: 732d 2a3c d8ae 16be b266 4f3e daca 0e3d
00000070: e1f5 b9bd f9d9 223e c14a 463e 94b9 4c3d
00000080: ea26 76be 1272 87bd 42ce ce3c 168c b9bc
00000090: 8d27 5e3e dd0f 67be d65b 2dbe fb07 133e
000000a0: 2ed8 5ebd eb14 b5be 126e 443e 5dab 1cbc
000000b0: 0f0c 85bd 5b22 873d f7f2 39be d6cd 22bf
000000c0: 90b3 30be e027 f8bc 89f2 ebbe 43ad 193e
000000d0: 43dc 77be cbae a6be eb95 b23d 4b14 4cbe
000000e0: b324 bfbe 111d 0a3e 5c1a 8c3c 669a 19bf
000000f0: 8474 893e fc33 c7be e157 1dbf 99b7 d8be
00000100: 80a9 08be 2d9d 01bf 1f32 9f3e 0e89 62bd
00000110: 8293 98be 6a4f a3bc 081b 87be 6b22 7eba
00000120: 5d06 40bb de21 7fbd 20fd 1fbf da20 77bd
00000130: 3ae0 4f3d c22c dc3d 26f4 333e cd4f 53be
00000140: 36f2 403e b8c5 623c 0044 ed3c 3081 ef3d
00000150: 1684 cc3c 5267 c6bd f108 1c3e 6f8d 163d
00000160: 51c6 04be 487b 733e 162e 11bc d961 a93d
00000170: f251 1ebe 94a5 e539 0dd6 8abd 1eb2 c83d
00000180: 42d4 aabd f779 e6bd de6c c13d 390d b63d
00000190: 9754 dabd c48b 8dbd 6792 a43d 2183 9abd
000001a0: ce95 433d 0659 34bd e2d5 7dbd a23e 07bf
000001b0: 8728 97be af87 553c 486b c8bd 32dd 9dbd
000001c0: 4a87 43bd c15c 98bc a2a7 20ba 9ed0 10be
000001d0: 59fa 53be 40a6 223d a428 7e3d 947d 3abe
000001e0: f09c a5bd 4936 7ebe a46e 03bf 6561 b2be
000001f0: ae83 aa3c 8430 a4be ff47 693d 309f d5bd
00000200: 866c 1abe 62e6 253d 60f3 61be f45f 7bbe
00000210: 5a8d 1a3d e1b8 1abd c28a 9dbe 2bb8 4d3d
00000220: e2b0 87be e88d 4ebf 7f29 07bf b688 d2bd
00000230: b953 e1bd b7d1 f5bc d9f7 a73d 28e2 a0be
00000240: ad61 33bc de49 d1be 16ae c5be 0e94 09be
00000250: e126 cebd 240c c2be 1457 b9bd 9753 b3bb
00000260: 9291 873d a6f7 2c3d 1277 a6be cae1 4fbd
00000270: 233f 9b3c b877 713d bb5d 38b9 c951 bb3c
00000280: d89e 82be 43b9 243d c89d 643d 1b84 56be
00000290: fe35 0a3e ff0a ed3d cdde 0d3d 10a1 b6bd
000002a0: ad9f 62bc f4ff 2bbc 1d12 9f3d 526c 323d
000002b0: 3864 adbb 2ad0 5238 6f35 f23b 7647 a4bd
000002c0: c9b1 113e c94b 0d3d ed59 3d3d 917b 02bd
000002d0: 53c7 2b3c 0555 e8bc 4a06 3ebe 5b9e c9bd
000002e0: 79b7 653d 291e 81bd 7743 723c 2aee 8d3d
000002f0: 5f42 113c 7df7 c73c adcb 303c 769b 1ebe
00000300: 4c03 99bb 283e 573a 4fa2 70bd 128f 0bbd
00000310: 4aca e5bc 9e78 81be 3a4e b5bd 531b 6bbd
00000320: c540 9d3d 7640 06be f2ef f7bc cede c7bc
00000330: 42b2 ddbc ecdc 81bd be31 93be 9851 3a3c
00000340: 8329 c63d 1dcd 37be 4745 aebb 3177 9ebe
00000350: 5e06 16bf 8f1b 27bf d174 a9bc 353b 63be
00000360: b02c 57bd a7ca bd3d d371 b1bc 7a52 5ebe
00000370: 2af5 34be 9d8f bfbd 00e9 48be fcd5 833d
00000380: 6f6a b4bd 5231 4ebd fd5a c3bd 8dcb 28be
00000390: bda4 993b 9746 b0bd fd9a afbd 1d86 ed3c
000003a0: b33d 30bd 2e5c f73c 6b9a 5ebc 4e8d 7dbe
000003b0: 5be4 1d3d 8014 603d 4735 0d3e c458 52be
000003c0: 358a c23d c3a2 fc3c 5c18 debd 797e c2bd
000003d0: d0b9 f83b 5d11 77bd 3e78 a1bc 8c42 873d
000003e0: 7611 643d 70f5 e2bc b70d 2dbd 542e eebb
000003f0: a995 a6bd 7ee7 cd3c 7c8d 70bd 147d f63d
-0.14222741 0.12410457 0.1533487 0.18544993 -0.13297804 0.2923624 -0.22484887 0.10073029
0.060507443 -0.0410647 -0.07681413 0.23217647 -0.03895825 -0.09331536 0.30781043 0.12924922
0.1441644 -0.011289904 0.15982068 0.009455242 0.2514188 -0.016076144 0.101665184 -0.08640177
0.0103868125 -0.14715135 0.20254019 0.034861423 -0.09080101 0.15903462 0.19364454 0.04998167
-0.24038282 -0.06613554 0.025244836 -0.022649806 0.21694775 -0.22564645 -0.16929564 0.14358513
-0.054405384 -0.35367522 0.19182613 -0.009562341 -0.064964406 0.0659835 -0.1815909 -0.6359533
-0.17255998 -0.030292451 -0.46083477 0.150075 -0.24205117 -0.3255523 0.08720001 -0.19929616
-0.37332687 0.1348765 0.017102413 -0.6000122 0.26846707 -0.38906848 -0.6146222 -0.42327574
-0.13345909 -0.50630456 0.31092927 -0.055306487 -0.2980004 -0.019935329 -0.2638781 -0.000969446
-0.0029300668 -0.062288158 -0.62495613 -0.060334064 0.05075095 0.107507244 0.17573604 -0.2063591
0.18842396 0.013841085 0.028963089 0.116945624 0.024965327 -0.096876755 0.15237786 0.036755975
-0.12966277 0.23777497 -0.008861085 0.08270616 -0.15460947 0.0004380165 -0.06779108 0.09799598
-0.08341266 -0.11253732 0.09444593 0.08889241 -0.106606655 -0.06911424 0.080357365 -0.07544542
0.047750287 -0.044030212 -0.061971553 -0.52829945 -0.29523107 0.013032838 -0.09786087 -0.07708205
-0.047736444 -0.018598916 -0.0006128495 -0.14142081 -0.20700969 0.03970933 0.062050477 -0.18211967
-0.08086574 -0.24825396 -0.513407 -0.3483993 0.020814743 -0.32068264 0.056953426 -0.10430753
-0.15080461 0.040502913 -0.22065496 -0.24548322 0.03773246 -0.03777397 -0.30769926 0.050224464
-0.26502138 -0.8068528 -0.52797693 -0.10279982 -0.11002297 -0.030007226 0.0820157 -0.31422544
-0.010948581 -0.4087667 -0.3860938 -0.13435385 -0.10066009 -0.37899888 -0.09049812 -0.005472611
0.06619562 0.042228363 -0.32512718 -0.05075244 0.018951004 0.058952063 -0.00017582525 0.022866147
-0.25511813 0.04021574 0.055814534 -0.20948832 0.13497159 0.11574363 0.034636308 -0.08917439
-0.013832015 -0.010498036 0.07767127 0.043560334 -0.005291488 5.026177e-05 0.0073916237 -0.080214426
0.14227976 0.034496102 0.046228338 -0.031856123 0.010484534 -0.028360853 -0.18557087 -0.09844657
0.056083176 -0.06304581 0.014786593 0.06930192 0.008865922 0.024410004 0.010790748 -0.15488991
-0.0046695825 0.0008210861 -0.05874854 -0.03407199 -0.02805056 -0.25287336 -0.08852811 -0.057399105
0.076783694 -0.13110527 -0.030265782 -0.024398234 -0.027062539 -0.06340966 -0.28748888 0.0113719925
0.096758865 -0.17949338 -0.005318317 -0.3095031 -0.58603466 -0.65276426 -0.020685585 -0.22190554
-0.05253285 0.092671685 -0.02166072 -0.2171115 -0.17671648 -0.09353564 -0.19620132 0.06437299
-0.08809363 -0.050340004 -0.09538839 -0.16483898 0.004688828 -0.08607214 -0.085744835 0.028994614
-0.04302759 0.030195322 -0.013586621 -0.24760935 0.038547855 0.05470705 0.13789855 -0.20541674
0.09499017 0.03083933 -0.1084449 -0.09496779 0.00759051 -0.060319293 -0.019710656 0.0660449
0.055680715 -0.027704924 -0.042249408 -0.0072687063 -0.08134014 0.025134798 -0.05872868 0.120355755

dense_2/MatMul_bias f4 [50]
00000000: e216 663d 03b9 8d3e fad5 1d3c 6317 693e
00000010: e5d1 493e bdbb be3d d3df a5bd 4477 833e
00000020: 9c70 203e 1463 e63e 073f bc3e 715d 2e3e
00000030: e306 7e3e 3028 98bc c318 693e 35eb bd3d
00000040: 0aa6 033e bd14 ee3c cde5 5d3e 2c86 ea3b
00000050: 5d01 303d 46c0 303e 69a9 ea3d a256 763e
00000060: 72d8 dd3e 61a5 253e 6770 803e 597f 6d3e
00000070: 334c 303e eaa0 a13d 4bf4 5b3e ea20 b6bc
00000080: c3d0 933e db40 3a39 a7ef 233e 20a1 593e
00000090: 7edd ed3c 41a0 143e 4946 db3d ac54 373e
000000a0: 5f8b 7e3d efae 9d3e 7249 2b3e ef96 c23d
000000b0: 075c f43d a759 963e ecf5 14bc 41ee 8ebc
000000c0: 3130 803e 5b62 403d
0.056174167 0.27680215 0.0096335355 0.22762828 0.19708975 0.09313152 -0.08099332 0.2567693
0.15667957 0.44997466 0.36766836 0.17027833 0.24807315 -0.01857385 0.22763352 0.09273378
0.12856308 0.029062623 0.21669693 0.007157108 0.04297005 0.17260846 0.11458094 0.24056485
0.43329197 0.16176368 0.25085756 0.2319311 0.17216568 0.0789202 0.21479909 -0.022232492
0.2887021 0.00017762503 0.16009389 0.2125287 0.02903628 0.14514257 0.10706765 0.17903394
0.062144633 0.30797526 0.16727236 0.095014445 0.11931615 0.29365274 -0.0090918355 -0.017447593
0.25036767 0.0469688

dense_2/kernel/transpose f4 [50, 128]
00000000: c186 02bf 7c60 e03d 8faa cf3c f200 b03e
00000010: 119f 1a3d ebac 643b e733 1e3c b0ce 3bbd
00000020: fce4 923e 7873 13be 9460 1c3e e01b 20bd
00000030: 3ad6 25be 64af e6bd 3239 c23d 889f 8ebe
00000040: 45ae 3dbd 7ef3 c43e 0a3f 583e 9d66 b8bd
00000050: a545 593e 1930 853e 99bf adbd 1a5d 873d
00000060: 1023 9e3d 5aab 90ba 94d3 6cbe 1413 bc3d
00000070: a534 72bd c4eb 3b3e 6ec3 97bd 8fdd 693d
00000080: 5eb5 b03d 8058 75bc c4e1 313e 1de7 26bd
00000090: 049b 6ebb cf5d 5e3e 9a80 aa3e b97d aabc
000000a0: 0aff 4b3e 2f58 bdbb 6cdf 593e 926b f03d
000000b0: edc5 42bd 5bba b03e 99c5 933e 2c1d 06be
000000c0: 8903 833e 90d6 b0bd b865 503d d7ed 38bd
000000d0: 6161 093d 4abe 113b 7552 1cbe b8ee 8fbd
000000e0: c510 7a3d fcd2 7cbe 2568 c13d c6d4 ca3e
000000f0: 1bca f63e 1011 403e 4f8a 143d 213a e1bd
00000100: efd0 323e 3b88 45be 2741 253d 3b7f a2be
00000110: 43f4 a93c 46f6 47bc b891 ab3c 8508 e3bd
00000120: 19c1 723d 26eb 823d 8d69 d5bc dd6f e53d
00000130: 455b afbd 11ea 023e 90f0 02bc 013d 7fbe
00000140: 1c3f 283d b6db 0dbe f1e7 e1bd d409 503d
00000150: 8da1 8cbd 24f9 78bc 8b87 793d e257 e13d
00000160: fa96 23bd d9cb 753e 586e 4b3d 7d67 91be
00000170: b971 9d3e 79a7 c23e 9618 043e 4e45 d03b
00000180: 589f c43d 0835 013e 1c30 a43c c582 80be
00000190: 7dfb ad3e e64c 7f3c b162 b23c 51b4 083e
000001a0: bacf f53d 0d00 9d3d d47f 2d3d 1951 87be
000001b0: 06ad 8f3e 0d7e 78bc 8da4 d5bd 830b b13b
000001c0: 1031 67be 9f5a 333f d651 803e 1c94 44be
000001d0: c452 213d afc1 c23d ed60 5dbe 7696 6abd
000001e0: 5d0a 2ebd 978e 863d 8f81 033e a8a4 a4be
000001f0: 7e38 20bd 928e bb3e cef1 a6bb 63d8 93bd
00000200: 7ed0 b83d 1fdc fdbd a682 d9ba b597 6d3e
00000210: 1c4d 81bc 5f2e 423e da7a 30be b0d2 98be
00000220: a679 25bd f188 bf3d 6a41 183e 7e0d 82bd
00000230: b336 fabd 50c6 063c 0754 70be 9df6 8e3c
00000240: c48a 89bd 99e3 593e 7a3c 9b3a 1cf9 983e
00000250: ff42 bdbd 9742 cbbc a1a9 e73d 8dda 06be
00000260: 5fc1 a43e 8695 a4be 27d6 a03c 4273 063e
00000270: 6341 13be 1ffd f7bc f9db 073d c961 07bd
00000280: 5f60 673e cfb7 13be ff41 dcbd 0ec3 4fbe
00000290: 3c29 fe3d 25bb 893d 8a4a 82bd 4ea3 6b3e
000002a0: fd43 d33d 523d c23e ee91 a6be 48a3 66be
000002b0: 5532 8f3d 0dd4 543d 9ad7 b03e bee6 02be
000002c0: 0639 c23e 815d 243e cd23 06be 32f8 43bd
000002d0: 071e 8cbd d977 a83e a82e 96be 6830 46be
000002e0: 19f1 9cbc ce9f 9a3c 38a8 bfbb 2045 103e
000002f0: 82db 8d3d db93 e1bd 0746 9cbc b976 023e
00000300: 471f 893e e78f 91bc dca5 24bd a6ca 843e
00000310: 566e 8d3c 66a5 3dbe 7754 febd c04e 8bbd
00000320: 4894 0e3e 4abf 37be 40bb 16be 93c8 ff3d
00000330: 087d 693e 6526 a4bd 4142 82bd a9db 75bb
00000340: f1ee a6bd 9823 7cbe 2d19 42be e98f b63e
00000350: c5da 833d f1d0 a7bd 74d1 af3d fb38 c03d
00000360: 37b1 cbbd f64c 6e3d a7eb e53e 3e4b 78bd
00000370: 6804 913e 4bdc b13e d751 a4be 8878 fd3c
00000380: d958 83be 244c 06be 9694 0fbd 260b 073f
00000390: d846 38bd cac2 22be 3560 053e 33fe fcbd
000003a0: b67b 38bd f07b 5e3d d0eb 4c3d 7a92 583e
000003b0: 776f ffbd f530 e93d 0b6f f5bc 30fd 003e
000003c0: dc22 5fbe bd92 3f3d 1fa3 f8bd 0224 063d
000003d0: e325 0b3e 7934 b63d 6ce6 45bd cdf8 0f3d
000003e0: 4f84 20be 70f1 c0bd d5b8 433e 18b8 d5bd
000003f0: 3c45 a63e 45e5 a1be 9535 93be 9160 8fbb
-0.5098687 0.10955903 0.025349883 0.3437572 0.037749354 0.0034893106 0.009655929 -0.04585141
0.28690326 -0.14399517 0.15271217 -0.039089084 -0.16195002 -0.11263922 0.094835654 -0.27856088
-0.046308775 0.3846702 0.21117797 -0.09003947 0.21217974 0.26013258 -0.0848381 0.066095546
0.077215314 -0.0011037395 -0.23127586 0.09183326 -0.059132237 0.18351656 -0.07410322 0.05709606
0.08628343 -0.014974713 0.17371279 -0.04074775 -0.0036408314 0.21715473 0.3330124 -0.020811902
0.19921508 -0.0057783346 0.21276635 0.117392674 -0.047552038 0.34517178 0.28861693 -0.13097066
0.25588635 -0.086346745 0.050878257 -0.045148697 0.033540133 0.0022238665 -0.1526583 -0.07027954
0.06105115 -0.24689859 0.09443692 0.39615458 0.4820107 0.18756509 0.036264714 -0.10997415
0.17462514 -0.19290249 0.040345337 -0.31737694 0.020746356 -0.012204712 0.020943508 -0.11085609
0.059266184 0.06392507 -0.026051307 0.11202977 -0.0856233 0.12784602 -0.007991925 -0.24925615
0.04107581 -0.13853344 -0.110305674 0.050790623 -0.06866751 -0.0151961185 0.06092028 0.110030904
-0.039938904 0.24003543 0.04966578 -0.28399268 0.30750826 0.38018396 0.12900004 0.006355918
0.09600705 0.12617886 0.020042472 -0.2509977 0.33980933 0.015582299 0.021775575 0.13350035
0.12002511 0.07666025 0.042358235 -0.2642906 0.28061694 -0.015166772 -0.10431776 0.0054029836
-0.2257731 0.7006015 0.25062436 -0.19197124 0.039385572 0.095095985 -0.21619006 -0.057272397
-0.042490352 0.065701656 0.12842391 -0.32156873 -0.039116375 0.3663221 -0.0050947433 -0.07219007
0.09024142 -0.123955004 -0.0016594722 0.23202403 -0.015783839 0.18963002 -0.17234364 -0.29848242
-0.040399216 0.093522914 0.14868703 -0.0635023 -0.12217464 0.008225992 -0.23469554 0.017451579
-0.067159206 0.21278228 0.0011843585 0.29877555 -0.09241294 -0.024812026 0.11311651 -0.13169308
0.3217878 -0.32145327 0.019633366 0.13129905 -0.14380412 -0.030272065 0.033168767 -0.03305224
0.22595356 -0.14425586 -0.10754775 -0.20289251 0.124102086 0.06725148 -0.063618734 0.23011515
0.10315702 0.3793741 -0.3253321 -0.22523224 0.06992022 0.05196004 0.3453949 -0.12783334
0.3793413 0.16051294 -0.13099594 -0.04784412 -0.06841665 0.32903937 -0.2933247 -0.19354403
-0.019157933 0.018875029 -0.0058489107 0.14088869 0.069266334 -0.11014529 -0.01907636 0.12740602
0.26781675 -0.017768813 -0.04019724 0.25935858 0.017264526 -0.18520126 -0.12418454 -0.0680213
0.13923752 -0.17944065 -0.14719868 0.12489428 0.22801602 -0.08015136 -0.06360293 -0.003751496
-0.08151043 -0.24622953 -0.18954916 0.3565667 0.06438211 -0.08194149 0.08584872 0.09385868
-0.099459104 0.058178864 0.4490635 -0.06061863 0.28323674 0.34738383 -0.3209369 0.030941263
-0.25653723 -0.13114983 -0.035053812 0.52751386 -0.044989437 -0.15894619 0.13024981 -0.12353172
-0.045039855 0.054317415 0.050029576 0.21149626 -0.12472432 0.11386291 -0.029960176 0.12596583
-0.21790642 0.0467708 -0.12140488 0.032749183 0.13588671 0.08896727 -0.04831545 0.035149384
-0.15675472 -0.094210505 0.19113477 -0.10435504 0.32474697 -0.3162023 -0.28751817 -0.0043755253

dense_3/MatMul_bias f4 [43]
00000000: 1844 87be 22f6 393e 96a7 74be b817 53bc
00000010: e5a7 f13d 7d47 a8bd d054 03be 6fbb 71be
00000020: 7883 0bbe 3f8d b43e 7441 84be 55e0 8cbe
00000030: daf9 87be 83ac c1bd 3aa1 7f3e 7af1 c9bd
00000040: 1d31 823d 94f1 3ebc 07a0 493f a497 16be
00000050: 384a df3d 72cd 20be 3610 8cbc 3b2f 59be
00000060: 7596 923d ce9b 10bf caa1 9fbe 956e e1be
00000070: 5a8a 93bd 48a6 23be 6cb9 8dbe 43da 9b3e
00000080: 7b20 103f 536c 513e e157 b33e 7285 36be
00000090: 5f13 033f 5d19 ea3e bc69 163f 63c9 c73d
000000a0: a8d2 803e 6776 433e 7a66 2e3e
-0.2641914 0.18160298 -0.23892054 -0.012884073 0.117996015 -0.0821676 -0.12825322 -0.23606656
-0.1362437 0.35264012 -0.25831187 -0.27514902 -0.2655781 -0.09456732 0.24963847 -0.09860511
0.06357024 -0.011654276 0.7875981 -0.14706284 0.10902828 -0.15703371 -0.017097574 -0.21209423
0.07157604 -0.5648774 -0.31178123 -0.4402968 -0.07204123 -0.159814 -0.27680528 0.30439958
0.5629956 0.20451479 0.35027984 -0.17824343 0.5120143 0.45722476 0.5875509 0.09755208
0.25160718 0.19088136 0.17031279

dense_3/kernel/transpose f4 [43, 50]
00000000: 4a44 81be a398 71bf 0b4f 9abe 1de1 23bf
00000010: 7864 dabe 0ecd a0be 843d 28bf c9db e3be
00000020: 66e9 e2be 7d84 0bbf e442 5abf 4797 0ebf
00000030: b464 03bf 2b85 22bf 5b38 d2bd e6ac 43be
00000040: 057c 74be 25d6 15bf 296b f9be 1eab 89be
00000050: 157c 03bf 83c1 b5be f518 46bf 7e67 61be
00000060: 24bc 9bbe bdb4 16bf ceab d5be 28c1 59be
00000070: 332a 09bf 6f13 babe b051 44bf 354b e7bd
00000080: 52fe 96be f2c1 cabe 2cb5 c0be b0f9 7cbf
00000090: 6de3 27be 6e23 80be 7485 bdbe 33d8 43bf
000000a0: 1629 a8be a5c9 e7be 121c 87bf 8106 b1be
000000b0: 5653 8abe 105c 35bf 220e 0abf 78b5 12bf
000000c0: 108c 0ebf e8ff 00bf 5169 0fbf 9a88 c73c
000000d0: 3c42 55be dfd8 be3d a6a7 583e bf96 683b
000000e0: 5014 70be 5666 6cbe 296d fdbd da07 db3d
000000f0: c886 33bf ae66 89bd e7ba 8b3d 9d9b 4b3e
00000100: df1d e5be 811f 273e 94d6 95bd a1de 80be
00000110: f023 823d a46e 0fbf 5b6f d23d 25b9 93be
00000120: 279e 123e cdd9 4d3e b4d5 253e d2b7 19be
00000130: 4177 11bf 83e2 8ebe 28b8 f5be c955 4e3e
00000140: 693a e3be 5271 413e 4dfb b63d 6069 25be
00000150: 590c 3b3e de28 073e 7748 bf3d b736 333e
00000160: fb36 87be 3fa2 42be 3407 99ba bf7b 2d3e
00000170: 14be fe3d 9902 39be 472d 163b e136 c6bc
00000180: 7810 263e 0179 493e d1a3 f7bc bfd5 84be
00000190: 92a4 423e 06cc 2a3e 751b 013e fe30 603e
000001a0: 7619 b2be 6648 513e 22d7 023e 3d09 2c3e
000001b0: 30ca 223e 18b1 cbbe 709a f0be fa20 dabe
000001c0: f593 afbe 6709 7abe e728 19be ae86 d5be
000001d0: 5653 4dbe d406 8a3d c9f8 78be ed16 0b3d
000001e0: 2ae4 293e 3164 80be a500 023e 02ac 1abe
000001f0: cb14 89be 3b87 213e 36d8 2abe af75 17bf
00000200: c8e3 143e 0d21 4dbe fdfd e6be 4d44 99be
00000210: 4b95 e43d 286f 283e be5e f43d 9c01 c5bd
00000220: 428e 7ebe d625 33be 2cfd 2f3d ce25 673d
00000230: ba7a 053e 9264 06be 5968 033e 6128 0c3e
00000240: d506 ee3c 25db 913c d1f7 383e 64ae d6be
00000250: c8e0 373e f321 8abe a3da 053d 01ab 76be
00000260: f2e1 163e 81fb 07be 71b8 2b3e 3dcb 58be
00000270: 7fd6 df3d 15fc 303e 42c9 f23d 49a8 51be
00000280: fa71 d33b bc05 333e db91 1ebe 02f2 36be
00000290: 512d 64be 522e 63be a7c0 633e fb58 bebc
000002a0: ee69 133e 3f30 45be 8da0 3b3e d534 293e
000002b0: d04f 2a3e 7f55 623e 4a19 683e 343a 86be
000002c0: ce0c c3bd 356f 44bc 3003 8bbe a721 87be
000002d0: da49 f2bd 54dc 6c3e 47e3 c7be 4829 0dbe
000002e0: ae82 153e f4a3 e23d a02d 44be 4742 3fbe
000002f0: 79ea c83d 6887 073e e574 cf3d 89b6 d13d
00000300: f236 a0be eaf1 96be ed18 cf3d 4452 96bd
00000310: 2b08 8fbe c706 5d3b 5e29 b6be 21ff e53d
00000320: 0a9c f93d 9db2 8a3d 73a3 57be c5e2 483e
00000330: 9d9d 563e f880 053e 71f9 58be bd95 363e
00000340: 3bd1 2cbe caa9 053e d4be 243d 1bed 60be
00000350: 57f4 0c3e 9c3d e2be f70b 243e 0118 9e3d
00000360: b388 efbd 2363 673d 4843 8dbe 01c2 133e
00000370: 44c2 aabd 41a7 263e df9b ae3c 3369 32be
00000380: 6a5b 633e e145 a5bd 0413 503e 07b7 393e
00000390: 8966 193e 12c0 18be ede8 203e edf0 22be
000003a0: 326a 183d 2f55 643e effe c7bd a94d 06be
000003b0: 1247 96bd f49d 21be 4f7e f83d 73db bebe
000003c0: 8521 ef3c c430 e0be 3edf 33bf 43fc cbbe
000003d0: bb62 873d faaf 993c 8891 a9be 99b8 4abd
000003e0: 7d35 72be 3224 103e c518 093e f5e8 e2bd
000003f0: 65c5 1d3e be0a 0e3e 9ff6 d9be 28d4 173e
-0.25247413 -0.9437353 -0.3013843 -0.6401537 -0.42654777 -0.31406444 -0.65718865 -0.4450362
-0.44318694 -0.54499036 -0.85258317 -0.5569958 -0.51325536 -0.6348445 -0.10264655 -0.19108924
-0.23875435 -0.58529884 -0.4871457 -0.26888365 -0.5136121 -0.354992 -0.7738183 -0.22012135
-0.30416977 -0.58869535 -0.4173264 -0.2126509 -0.53580016 -0.36342952 -0.76687145 -0.112936415
-0.29490906 -0.39601094 -0.37638223 -0.9881849 -0.1639535 -0.2502703 -0.3701588 -0.7650177
-0.32843846 -0.4527103 -1.0555441 -0.34575275 -0.27016705 -0.708436 -0.53927815 -0.5730815
-0.5568247 -0.5039048 -0.56020075 0.024357129 -0.20826048 0.09318709 0.21157703 0.0035490242
-0.23445249 -0.23085913 -0.12374336 0.10694857 -0.70127535 -0.06709038 0.06822758 0.1988358
-0.44749352 0.16320612 -0.07316318 -0.25169852 0.06354511 -0.560282 0.102751456 -0.28852192
0.14318143 0.20102616 0.16194803 -0.15011528 -0.5682259 -0.2790719 -0.47992063 0.20149912
-0.443805 0.18890885 0.089346506 -0.16153479 0.18266429 0.13199183 0.093399934 0.17501341
-0.26409134 -0.19007204 -0.001167512 0.16941737 0.12438598 -0.18067397 0.002291517 -0.02419609
0.1621722 0.19675066 -0.030229481 -0.25944325 0.19008091 0.16679391 0.1260813 0.21893689
-0.3478505 0.20437774 0.12777379 0.16800399 0.15897441 -0.3978355 -0.46992826 -0.42603284
-0.3429257 -0.24417649 -0.1495701 -0.41704315 -0.20051321 0.067395836 -0.24313654 0.03395741
0.16590944 -0.2507644 0.12695558 -0.15104678 -0.26773676 0.15774243 -0.1668404 -0.59163946
0.14540017 -0.20032139 -0.45115653 -0.29934922 0.11161288 0.16448653 0.11932133 -0.096194476
-0.24858955 -0.17494902 0.042966053 0.056432538 0.13035098 -0.13124302 0.12832774 0.13687278
0.029055992 0.017804692 0.18063284 -0.41929924 0.17956841 -0.26979026 0.03267921 -0.2408867
0.14734629 -0.13279535 0.16769578 -0.21171279 0.10929584 0.17283662 0.11854793 -0.20474352
0.006452796 0.17482656 -0.15485327 -0.17865756 -0.22282912 -0.22185639 0.2224146 -0.023235789
0.14395878 -0.19256686 0.18322964 0.1652406 0.16632009 0.22102927 0.22665897 -0.2621628
-0.09523927 -0.011989404 -0.2715087 -0.26392862 -0.11830492 0.23130924 -0.39040586 -0.13785279
0.14600632 0.11066428 -0.1915803 -0.18677627 0.09810347 0.13235247 0.10129718 0.10239894
-0.3129192 -0.2948144 0.10112176 -0.0733991 -0.2793592 0.0033725963 -0.35578436 0.112303026
0.12187965 0.06772349 -0.21058445 0.19617756 0.20958562 0.13037479 -0.21188904 0.17830558
-0.1687669 0.1305305 0.04022105 -0.21965449 0.13765083 -0.4418763 0.16020189 0.07719422
-0.11695995 0.05649103 -0.27590394 0.14429475 -0.083378345 0.1627474 0.02131456 -0.17422943
0.2220284 -0.08069969 0.20319754 0.18136226 0.1498052 -0.14917019 0.15713854 -0.15912218
0.03721065 0.2229812 -0.097654216 -0.13115562 -0.07337774 -0.1578291 0.121334665 -0.372768
0.029190788 -0.43787205 -0.70262516 -0.39840898 0.06610628 0.01876067 -0.33118844 -0.049492452
-0.23653217 0.14076307 0.13388355 -0.11079589 0.15407331 0.13871285 -0.4257097 0.14827025
